Model: "ieee_phishing_fnn"
+--------------------------------------------------------------------------+
| Layer (type)                    | Output Shape           |       Param # |
|---------------------------------+------------------------+---------------|
| dense_64 (Dense)                | (None, 64)             |           960 |
|---------------------------------+------------------------+---------------|
| dropout_64 (Dropout)            | (None, 64)             |             0 |
|---------------------------------+------------------------+---------------|
| dense_32 (Dense)                | (None, 32)             |         2,080 |
|---------------------------------+------------------------+---------------|
| dropout_32 (Dropout)            | (None, 32)             |             0 |
|---------------------------------+------------------------+---------------|
| phishing_probability (Dense)    | (None, 1)              |            33 |
+--------------------------------------------------------------------------+
 Total params: 9,221 (36.02 KB)
 Trainable params: 3,073 (12.00 KB)
 Non-trainable params: 0 (0.00 B)
 Optimizer params: 6,148 (24.02 KB)

